…
2021-04-11 22:56:50.258994: I tensorflow/compiler/jit/xla_gpu_device.cc:99] Not creating XLA devices, tf_xla_enable_xla_devices not set      
Model: "model_1"
__________________________________________________________________________________________________
Layer (type)                    Output Shape         Param #     Connected to
==================================================================================================
input_1 (InputLayer)            [(None, 32, 128, 1)] 0
__________________________________________________________________________________________________
conv2d (Conv2D)                 (None, 32, 128, 64)  640         input_1[0][0]
__________________________________________________________________________________________________
max_pooling2d (MaxPooling2D)    (None, 16, 64, 64)   0           conv2d[0][0]
__________________________________________________________________________________________________
conv2d_1 (Conv2D)               (None, 16, 64, 128)  73856       max_pooling2d[0][0]
__________________________________________________________________________________________________
max_pooling2d_1 (MaxPooling2D)  (None, 8, 32, 128)   0           conv2d_1[0][0]
__________________________________________________________________________________________________
conv2d_2 (Conv2D)               (None, 8, 32, 256)   295168      max_pooling2d_1[0][0]
__________________________________________________________________________________________________
conv2d_3 (Conv2D)               (None, 8, 32, 256)   590080      conv2d_2[0][0]
__________________________________________________________________________________________________
max_pooling2d_2 (MaxPooling2D)  (None, 4, 32, 256)   0           conv2d_3[0][0]
__________________________________________________________________________________________________
conv2d_4 (Conv2D)               (None, 4, 32, 512)   1180160     max_pooling2d_2[0][0]
__________________________________________________________________________________________________
batch_normalization (BatchNorma (None, 4, 32, 512)   2048        conv2d_4[0][0]
__________________________________________________________________________________________________
conv2d_5 (Conv2D)               (None, 4, 32, 512)   2359808     batch_normalization[0][0]
__________________________________________________________________________________________________
batch_normalization_1 (BatchNor (None, 4, 32, 512)   2048        conv2d_5[0][0]
__________________________________________________________________________________________________
max_pooling2d_3 (MaxPooling2D)  (None, 2, 32, 512)   0           batch_normalization_1[0][0]
__________________________________________________________________________________________________
conv2d_6 (Conv2D)               (None, 1, 31, 512)   1049088     max_pooling2d_3[0][0]
__________________________________________________________________________________________________
lambda (Lambda)                 (None, 31, 512)      0           conv2d_6[0][0]
__________________________________________________________________________________________________
bidirectional (Bidirectional)   (None, 31, 256)      656384      lambda[0][0]
__________________________________________________________________________________________________
bidirectional_1 (Bidirectional) (None, 31, 256)      394240      bidirectional[0][0]
__________________________________________________________________________________________________
dense (Dense)                   (None, 31, 63)       16191       bidirectional_1[0][0]
__________________________________________________________________________________________________
the_labels (InputLayer)         [(None, 21)]         0
__________________________________________________________________________________________________
input_length (InputLayer)       [(None, 1)]          0
__________________________________________________________________________________________________
label_length (InputLayer)       [(None, 1)]          0
__________________________________________________________________________________________________
ctc (Lambda)                    (None, 1)            0           dense[0][0]
                                                                 the_labels[0][0]
                                                                 input_length[0][0]
                                                                 label_length[0][0]
==================================================================================================
Total params: 6,619,711
Trainable params: 6,617,663
…
